algorithm/assets/mcu_models/luis.pt (torch, 824287 bytes, 40 tensors)

encoder.weight f4 [128, 12]
0	0x3f23dce7	0.64008945
1	0x3edd8cc4	0.43271458
2	0xbe148cc3	-0.14506821
3	0xbf09de2c	-0.5385463
4	0x3e7dc760	0.24783087
5	0x3e9b2b54	0.30306494
6	0xbbf0281b	-0.0073289997
7	0xbd0e1b34	-0.03469391
8	0xbda11af7	-0.07866471
9	0x3f04848f	0.5176477
10	0xbd58fb67	-0.05297413
11	0xbe1b9890	-0.15194917
12	0xbf726b10	-0.94694614
13	0xbe980dc5	-0.29698005
14	0x3ef66f50	0.481318
15	0x3f3833fd	0.7195433
16	0xbf54ee8e	-0.83176506
17	0xbdc87bd2	-0.09789242
18	0xbe2bba6b	-0.16770332
19	0xbe30c888	-0.17263997
20	0xbea0d29a	-0.31410676
21	0xbdf7c0f9	-0.120973535
22	0x3e914930	0.2837615
23	0x3c2758a7	0.010214007
24	0x3e479fba	0.19494525
25	0x3e109af9	0.14121617
26	0xbe1015ab	-0.14070766
27	0xbe178341	-0.14796163
28	0x3e15b6df	0.14620541
29	0xbd5aa08a	-0.05337576
30	0xbeb8ee0a	-0.3611911
31	0xbedfdfff	-0.43725583
32	0xbe1c5f5b	-0.1527075
33	0xbe8a2ae8	-0.2698586
34	0x3e3238e6	0.17404518
35	0x3ea045b6	0.31303185
36	0xbeee5ea2	-0.46556574
37	0xbebc508a	-0.36780196
38	0x3e87aadb	0.2649754
39	0x3eb42e00	0.35191345
40	0xbe9b4378	-0.30324912
41	0xbe7f4477	-0.24928461
42	0xbe4a21e5	-0.19739492
43	0x3e5c2597	0.21498714
44	0xbe853551	-0.2601724
45	0xbea8a513	-0.32938442
46	0xbebeb295	-0.37245622
47	0xbeaa1e46	-0.33226222
48	0x3e94eb3f	0.2908573
49	0xbf14a075	-0.5805734
50	0xbf01a41f	-0.50641054
51	0x3e59ba23	0.21262412
52	0x3ece9a43	0.40352067
53	0xbecf7fe2	-0.40527254
54	0xbcce1f3f	-0.025161384
55	0x3ed8b298	0.42323756
56	0x3f06a504	0.52595544
57	0x3f0084c3	0.5020258
58	0xbe36052b	-0.17775409
59	0x3d41b1b2	0.047288604
60	0x3ec09de0	0.3762045
61	0x3d8890d9	0.066682525
62	0xbe280cbf	-0.16411112
63	0xbe9865e7	-0.29765245
64	0x3eaee7fd	0.34161368
65	0x3e26f23c	0.16303343
66	0xbf053e50	-0.52048206
67	0xbe3191b8	-0.17340744
68	0x3e7c59c0	0.24643612
69	0x3f0af5a9	0.542811
70	0xbcf5528b	-0.029946586
71	0x3e48f43f	0.19624422
72	0xbe703c19	-0.23460425
73	0x3f19ce4b	0.60080403
74	0x3f076fc8	0.5290494
75	0xbe3f748a	-0.186968
76	0xbedd6936	-0.43244332
77	0x3eff8ea8	0.49913526
78	0x3e6d6851	0.23184325
79	0xbe8ae0f5	-0.27124754
80	0x3df6f093	0.12057605
81	0x3efb4a9d	0.49080363
82	0x3eae1abb	0.3400477
83	0xbd0558a7	-0.03255525
84	0x3eda3409	0.42617825
85	0xbf09284d	-0.5357712
86	0xbf3e9ca2	-0.7445775
87	0x3e0da0dc	0.13830894
88	0x3f4bc945	0.7960399
89	0xbf10ecc7	-0.56611294
90	0x3d54162c	0.051778957
91	0xbcca6d24	-0.024710245
92	0xbe533749	-0.20626558
93	0x3cca0fab	0.024665674
94	0x3e920ba8	0.28524518
95	0x3e00ec38	0.1259011
96	0x3f4a6baa	0.7907053
97	0x3f3fcf65	0.74925834
98	0x3e6cfab1	0.23142506
99	0xbf4cecf9	-0.8004909
100	0x3e2f3a6b	0.17112128
101	0x3e85457a	0.2602957
102	0x3e354549	0.17702211
103	0xbdc7853a	-0.09742208
104	0x3e76f5d6	0.24117216
105	0x3e94ada3	0.29038724
106	0xbd248e29	-0.040174637
107	0x3ea95bda	0.3307789
108	0x3ec1b97b	0.37836823
109	0x3ed0b7dd	0.40765277
110	0x3e988276	0.29787034
111	0xbec20111	-0.3789144
112	0x3e40ebc9	0.18839945
113	0x3ef77eef	0.4833903
114	0xbf028bf6	-0.50994813
115	0x3d98d007	0.07461553
116	0x3f38532f	0.7200193
117	0xbd15083a	-0.0363848
118	0xbf4b3460	-0.7937679
119	0x3bf40e56	0.007447998
120	0x3f5a4e9d	0.85276204
121	0x3f237fd0	0.638669
122	0x3dcfa905	0.1013966
123	0xbf523297	-0.82108444
124	0x3f26eaa2	0.6520177
125	0x3df750a2	0.12075926
126	0xbe12d646	-0.14339551
127	0x3dff885a	0.12477179
128	0x3e3733bc	0.17890829
129	0x3d10973e	0.035300486
130	0x3eb15b85	0.34640136
131	0x3e9a42c8	0.30129075
132	0xbf0cbd09	-0.54975945
133	0xbed3a28b	-0.41334948
134	0xbe8e6aca	-0.2781585
135	0x3f0bb2cf	0.54569715
136	0x3d7bdfc2	0.06149269
137	0xbede5b68	-0.43429112
138	0x3e3d6b1d	0.18497892
139	0x3dc0866e	0.094006404
140	0x3e7186e9	0.2358662
141	0xbeb139ad	-0.34614316
142	0xbe8ba9d8	-0.27278018
143	0xbebd8c2e	-0.3702101
144	0x3f0a685b	0.54065484
145	0x3e9ea20c	0.30983007
146	0x3e4a2473	0.19740467
147	0xbf3571a1	-0.7087651
148	0x3e24e64b	0.16103475
149	0x3e7e3895	0.24826272
150	0x3f504707	0.8135838
151	0x3ed5fae8	0.4179299
152	0xbe6ed1c1	-0.23322202
153	0xbd167af4	-0.03673835
154	0x3ec19bb9	0.3781412
155	0x3e8ce613	0.27519283
156	0x3b6a5ab6	0.0035759634
157	0x3eacac6a	0.33725291
158	0x3eb83a05	0.35981765
159	0x3c7f074e	0.015565706
160	0xbeaba415	-0.33523622
161	0x3ef639ef	0.48091075
162	0x3ec529a3	0.3850833
163	0xbe412b90	-0.18864274
164	0xbee8ff6d	-0.45507374
165	0xbe8d609d	-0.27612773
166	0xbe27a4d8	-0.16371477
167	0x3dedb930	0.11607587
168	0x3bbb6899	0.005719256
169	0xbeb7a90a	-0.35871154
170	0xbe6c998f	-0.23105453
171	0x3eb2dda7	0.34934732
172	0xbe27b62c	-0.16378087
173	0xbd5c122d	-0.05372827
174	0x3f04aa4f	0.5182237
175	0xbe9938d2	-0.29926163
176	0x3d772161	0.060334567
177	0x3e334200	0.17505646
178	0xbee69aba	-0.45039922
179	0xbe3a4f36	-0.18194279
180	0x3f0f73a8	0.5603585
181	0xbefe6d89	-0.49692944
182	0xbeda448f	-0.4263043
183	0xbce0de57	-0.02744977
184	0x3f07a35c	0.5298364
185	0xbf2974d5	-0.66193897
186	0xbea7cf0f	-0.3277516
187	0xbe7e13aa	-0.24812189
188	0xbdd31c6f	-0.10308158
189	0xbe8e7c1d	-0.27829066
190	0xbef14834	-0.471254
191	0xbdde21ca	-0.108462885
192	0xbe8ff757	-0.28118393
193	0x3e92fefd	0.28710166
194	0x3ef20169	0.472667
195	0x3c371020	0.011173278
196	0xbe8ee3e3	-0.2790824
197	0x3d5d9540	0.054097414
198	0x3ea9f319	0.3319328
199	0xbea2567f	-0.31706616
200	0x3edf655b	0.43632016
201	0x3f047ada	0.51749957
202	0xbeb63b7a	-0.35592252
203	0x3e852a5b	0.26008877
204	0x3f16b533	0.5887024
205	0x3ef21f02	0.47289282
206	0x3e549ff5	0.20764144
207	0xbecb3ff3	-0.39697227
208	0x3ea315be	0.31852525
209	0x3efefdfd	0.49803153
210	0x3eb6d4c7	0.3570921
211	0x3e432a8d	0.190592
212	0x3eaab466	0.33340758
213	0x3d8c5890	0.068528295
214	0x3e8252b7	0.2545373
215	0xbe2f8439	-0.17140283
216	0x3e5d13e3	0.21589617
217	0x3f14a3b1	0.58062273
218	0x3e59ef1b	0.21282618
219	0xbea88bc9	-0.32919148
220	0x3e5d60d6	0.21618971
221	0x3eead5c7	0.45866224
222	0xbf0dbaf9	-0.5536342
223	0xbe9aeda2	-0.30259424
224	0xbee66cfb	-0.4500502
225	0x3d809bb7	0.062797
226	0x3e2affdd	0.16699167
227	0x3e9af9ef	0.3026881
228	0x3d8e56a7	0.069501214
229	0x3f4170b6	0.7556261
230	0x3f28a931	0.65883166
231	0xbf0806ff	-0.53135675
232	0xbf42da3c	-0.7611425
233	0x3f057b59	0.5214134
234	0xbe69a532	-0.22816923
235	0xbded2cfc	-0.11580846
236	0xbd05054d	-0.03247576
237	0x3e02eb18	0.12784994
238	0xbe2dbf69	-0.16967548
239	0x3dd440c0	0.103639126
240	0x3efd9aa3	0.4953204
241	0xbe805cb8	-0.2507074
242	0xbedb9c30	-0.428926
243	0xbe2b9aeb	-0.16758315
244	0x3ec33ac4	0.38130772
245	0xbeb18bdd	-0.3467702
246	0xbf024342	-0.5088388
247	0xbbbce656	-0.005764763
248	0xbe18b481	-0.14912607
249	0xbed206b4	-0.4102074
250	0x3e49f6b8	0.19723022
251	0x3ed08cbe	0.40732378
252	0xbf1e903c	-0.61938834
253	0xbf133f0b	-0.5751807
254	0xbe8b3365	-0.27187648
255	0x3ee6d659	0.4508541

encoder.bias f4 [128]
0	0xbddf896f	-0.10914885
1	0xbde33e35	-0.110958494
2	0x3e78520e	0.24250051
3	0xbda65931	-0.08122481
4	0x3ccdc5c2	0.025118712
5	0xbd2eb994	-0.04265745
6	0xbdb5945f	-0.0886619
7	0xbd93855b	-0.0720317
8	0xbe18292c	-0.14859456
9	0x3e2d7dd5	0.16942532
10	0xbd2d5fed	-0.04232781
11	0xbea572ba	-0.32314092
12	0x3e6e12a7	0.23249303
13	0x3bf42cf8	0.0074516498
14	0xbe9cd3b6	-0.30630273
15	0xbdb61906	-0.088914916
16	0xbd22d576	-0.039754353
17	0x3d93c516	0.072153255
18	0xbe077186	-0.132269
19	0x3e78a4ef	0.24281667
20	0x3d72dbec	0.059291765
21	0x3ddc707f	0.107636444
22	0xbbe40e9a	-0.0069597485
23	0x3d014319	0.03155813
24	0xbcda5413	-0.026651418
25	0x3e894102	0.2680741
26	0xbdc4195c	-0.095751494
27	0xbd16b0f3	-0.036789846
28	0x3dbf5ba4	0.09343651
29	0xbd72c310	-0.059268057
30	0xbe4c79cf	-0.19968341
31	0xbd84e048	-0.06488091
32	0xbd7d4759	-0.06183562
33	0xbd97aa9d	-0.07405589
34	0x3dffe6a5	0.12495164
35	0x3da716e4	0.08158663
36	0xbd1b6233	-0.037935447
37	0x3de0662f	0.1095699
38	0x3e0ac348	0.13551056
39	0xbceb00f0	-0.02868697
40	0x3d0d7be7	0.03454199
41	0x3d695f6b	0.056975763
42	0xbe0e471d	-0.13894315
43	0xbdc5df69	-0.09661753
44	0x3cab13ff	0.020883558
45	0xbe0ee19a	-0.13953248
46	0xbd9f0b5d	-0.07765839
47	0x3d0d203a	0.03445456
48	0x3cae56a2	0.021281544
49	0x3c68c9fc	0.014208313
50	0xbe80f41a	-0.25186235
51	0x3ce04ec0	0.0273813
52	0x3dc248db	0.09486552
53	0xbd8e73f3	-0.06955709
54	0x3d8cac2c	0.06868777
55	0xbd5f6e32	-0.05454845
56	0x3d846618	0.06464785
57	0xbc06922b	-0.00821356
58	0xbe12320d	-0.14276905
59	0x3da0b0f0	0.07846248
60	0x3d044c40	0.03229928
61	0xbeb38095	-0.35059038
62	0x3e20f143	0.15717034
63	0x3d11207c	0.03543137
64	0x3e0fa233	0.14026718
65	0xbd13d145	-0.036088247
66	0x3e2f0571	0.1709192
67	0xbd31bf60	-0.0433954
68	0x3ddd6795	0.10810772
69	0xbd29b376	-0.041430913
70	0xbc50620e	-0.012718691
71	0x3e466d7b	0.19377701
72	0x3bed5257	0.0072424817
73	0xbe7a2c89	-0.24431051
74	0xba476409	-0.0007606154
75	0x3bef8230	0.0073092207
76	0x3cff7ecf	0.031188397
77	0xbdb55c6d	-0.088555194
78	0x3dad23fd	0.0845413
79	0x3d58e931	0.052956764
80	0x3d85354c	0.06504306
81	0x3de7b9e8	0.11314756
82	0xbdddede7	-0.10836392
83	0x3e80ba09	0.25141934
84	0xbdc2b295	-0.09506718
85	0x3e1e4225	0.1545492
86	0x3e6ce7d1	0.23135306
87	0xbdcd20fc	-0.10016057
88	0xbc0a1cc6	-0.008429712
89	0x3ca5c677	0.020236237
90	0xbe1b3710	-0.15157723
91	0xbdb4c64f	-0.08826887
92	0x3dbf1188	0.09329516
93	0xba80387d	-0.000978246
94	0x3c85d349	0.0163361
95	0x3b270855	0.0025487144
96	0xbc893c8f	-0.01675251
97	0x3db3820d	0.087650396
98	0x3d87ed4b	0.06637057
99	0x3e298226	0.16553554
100	0x3e1d7971	0.15378357
101	0xbdaf54d6	-0.08561103
102	0xbbf0ebb0	-0.007352315
103	0x3e7a3484	0.24434096
104	0x3e0b0b0e	0.13578436
105	0x3d940a22	0.07228495
106	0xbd23c26e	-0.039980344
107	0xbe978483	-0.29593286
108	0xbbe5fd7c	-0.007018743
109	0x3def04d0	0.1167084
110	0x3dce8572	0.100840464
111	0x3e5982d9	0.2124132
112	0x3d601343	0.05470587
113	0x3bc869c7	0.0061161253
114	0xba4bf05d	-0.00077796524
115	0x3d2e08d4	0.042488888
116	0xbe473375	-0.19453223
117	0xbd021f2a	-0.031768
118	0xbe017a04	-0.12644202
119	0x3d1b0056	0.037842117
120	0x3d694280	0.056948185
121	0x3d2181b6	0.039430343
122	0x3db3746e	0.087624416
123	0xbd17920c	-0.037004516
124	0xbd5587eb	-0.052131575
125	0x3e45469e	0.1926522
126	0x3cb1ea12	0.021718059
127	0xbd8e5394	-0.06949535

s4_layers.0.D f4 [128]
0	0xbf444849	-0.766728
1	0x3f186559	0.59529644
2	0xbe32a2e9	-0.17444958
3	0x3d7ffa64	0.06249465
4	0xbf58e7b4	-0.8472855
5	0xbef871cb	-0.48524317
6	0xbe2bb52e	-0.16768333
7	0x3e7b53b6	0.24543652
8	0x3f80396e	1.0017526
9	0xbec15970	-0.37763548
10	0x3f07667e	0.52890766
11	0x3f0d0ea5	0.5510047
12	0x3e95c346	0.29250544
13	0x3f867073	1.0503067
14	0x3fa9ba29	1.3259937
15	0xbebf2d18	-0.3733909
16	0x3f83df91	1.0302602
17	0x3f61d304	0.8821261
18	0xbe9cd98e	-0.3063473
19	0x3edc0dc0	0.4297924
20	0x3ec7faa4	0.3905841
21	0x3d208987	0.039193656
22	0x3f7e8b5e	0.9943141
23	0xbd80b4b1	-0.06284464
24	0xbf0d27be	-0.55138767
25	0xbfb15119	-1.3852874
26	0x3fa89190	1.3169422
27	0x3ad409b9	0.0016177214
28	0x3f4463be	0.76714694
29	0x3e8dde26	0.27708548
30	0x3e2c5193	0.16827993
31	0x3f8453d7	1.0338086
32	0xbfbd8cf2	-1.4808638
33	0xbf434bfe	-0.7628783
34	0xbf41bf30	-0.75682354
35	0xbebb3201	-0.36561587
36	0xbf78ce31	-0.97189623
37	0xbf592eb9	-0.8483692
38	0xbe372da6	-0.17888507
39	0xbf92b10c	-1.146028
40	0xbfe94c6d	-1.8226448
41	0xbf2ad669	-0.66733414
42	0xbf75cbe5	-0.96014243
43	0xbf2ba2bc	-0.6704519
44	0x3fad0d33	1.3519653
45	0xbf14f504	-0.58186364
46	0x3ea8a451	0.32937863
47	0x3cc1ed9b	0.02367287
48	0xbe5a783f	-0.21334933
49	0xbd1ad22e	-0.0377981
50	0xbeb46fd3	-0.35241565
51	0xbcb5317f	-0.022118328
52	0xbdd8648b	-0.10566052
53	0x3e880f0b	0.26573977
54	0xbe33b731	-0.1755035
55	0x3f1618d0	0.5863161
56	0x3e3d50ba	0.18487826
57	0x3f7c1e54	0.9848378
58	0x3f991081	1.1958162
59	0xbe1465fc	-0.14492029
60	0xbdd012fc	-0.10159871
61	0xbf9a44e2	-1.2052271
62	0xbefe25bd	-0.49638167
63	0x3f20ee9f	0.62864107
64	0xbea697aa	-0.32537585
65	0x3daf298c	0.08552846
66	0x3f805217	1.0025052
67	0x3e968de0	0.29405117
68	0x3e655507	0.22395717
69	0x3f26e917	0.65199417
70	0xbe661bfa	-0.2247161
71	0xbe4afe6e	-0.1982362
72	0xbf99be8f	-1.2011279
73	0xbef15724	-0.47136796
74	0x3e8e556b	0.27799544
75	0xbf658f87	-0.8967213
76	0x3c6d4011	0.014480607
77	0xbf0edd85	-0.5580676
78	0xbe958bae	-0.2920813
79	0xbeee906b	-0.46594557
80	0xbf49f7c4	-0.78893685
81	0x3e9642ee	0.29347938
82	0xbe0edb2f	-0.139508
83	0x3ebedbef	0.3727717
84	0xbe569f88	-0.20959294
85	0x3e13eaa1	0.14444973
86	0x3edc76a8	0.43059278
87	0x3f832027	1.0244187
88	0xbe1dbd4f	-0.15404247
89	0xbfe24eda	-1.7680314
90	0xbf3e08c9	-0.74232155
91	0x3cc2f896	0.023800176
92	0x3e8552d6	0.2603976
93	0x3f1d67bb	0.61486405
94	0xbfcba039	-1.5908271
95	0x3f311ae1	0.6918164
96	0x3e95c651	0.29252866
97	0xbf8ad782	-1.0847018
98	0xbcb39241	-0.021920325
99	0xbe0555b3	-0.13020973
100	0xbed4f31b	-0.41591725
101	0xbf4263d8	-0.759336
102	0x3e10aa19	0.14127387
103	0x3f41ffe9	0.7578111
104	0xbebd2637	-0.36943218
105	0x3e248c60	0.16069174
106	0xbe2155ba	-0.15755358
107	0xbf26ff46	-0.65233266
108	0xbf17ca07	-0.59292644
109	0xbe873b17	-0.2641227
110	0xbe95ceab	-0.29259238
111	0xbeec9dc5	-0.4621412
112	0x3ebacc96	0.36484212
113	0x3f6f13b6	0.9338945
114	0x3f8f2264	1.118237
115	0xbdead911	-0.114671834
116	0x3f68f516	0.9099897
117	0x3f218c81	0.63105017
118	0xbeb14dc3	-0.3462964
119	0xbfa30287	-1.2735146
120	0x3f69ec3e	0.913761
121	0x3e3486fc	0.17629617
122	0xbff57363	-1.9175838
123	0x3e00efc7	0.12591468
124	0xbf1315ee	-0.5745534
125	0xbf84176a	-1.0319645
126	0xbfc04277	-1.5020283
127	0xbe0c4b28	-0.13700545

s4_layers.0.kernel.C f4 [128, 32, 2]
0	0x3e5c45c3	0.21510987
1	0xbec8337b	-0.39101776
2	0xbfb8b417	-1.4429959
3	0xbf1779e0	-0.5917034
4	0x3e91813c	0.2841891
5	0x3e828fbb	0.25500283
6	0xbed5f529	-0.41788605
7	0xbea532e4	-0.3226539
8	0xbeae2dde	-0.3401937
9	0x3ec6faaa	0.38863117
10	0x3f16711e	0.58766353
11	0x3dd4e846	0.10395865
12	0xbebcf4fe	-0.36905664
13	0xbe9d78ae	-0.30756134
14	0x3e58c8a9	0.21170296
15	0x3f61266b	0.87949246
16	0x3e785522	0.24251226
17	0x3e6ed30b	0.23322694
18	0x3e2f3dfc	0.17113489
19	0x3e87be21	0.26512244
20	0xbdd0d914	-0.10197654
21	0x3f235664	0.63803697
22	0x3f0b0a45	0.54312545
23	0xbe0527ba	-0.13003436
24	0x3f59bb35	0.8505128
25	0xbf03a600	-0.5142517
26	0x3dd2350d	0.10264025
27	0xbf8d4edf	-1.1039695
28	0x3f263b7a	0.64934504
29	0xbf921d3a	-1.1415169
30	0xbb8949f1	-0.0041897227
31	0xbf3ce389	-0.7378469
32	0xbe6fa935	-0.23404391
33	0xbc7433cc	-0.014904927
34	0x3f01f581	0.50765234
35	0xbe2dde9b	-0.16979448
36	0xbe99e756	-0.30059308
37	0x3e0e8d1a	0.13921013
38	0x3c11d000	0.008899689
39	0x3da0d31f	0.07852768
40	0x3e3aa90c	0.18228549
41	0xbe44c48a	-0.19215599
42	0xbf5c0d5b	-0.8595788
43	0xbea7302d	-0.32653943
44	0xbecca070	-0.39966154
45	0x3d5e636b	0.05429403
46	0xbdb11026	-0.08645658
47	0x3e3f3c78	0.18675411
48	0x3ef9407a	0.48682004
49	0x3e2cb841	0.16867162
50	0xbeeafd13	-0.45896205
51	0xbf382131	-0.71925646
52	0x3e15aa1e	0.14615676
53	0x3fb923f8	1.4464102
54	0x3f98c2db	1.1934465
55	0x3e10be41	0.14135076
56	0x3eec2790	0.46123934
57	0x3e9cbfd7	0.30615112
58	0x3f0d0422	0.5508443
59	0x3e76e4bd	0.24110694
60	0xbe55c198	-0.20874631
61	0x3ebdea6f	0.3709292
62	0xbf2cdd38	-0.67525053
63	0xbdb02f4b	-0.086027704
64	0xbebf23cf	-0.37332007
65	0xbf4f7e1a	-0.8105179
66	0xbf0ab358	-0.54179907
67	0xbec155a1	-0.37760642
68	0x3f1e0927	0.61732715
69	0x3f2d47e7	0.6768784
70	0x3f469666	0.7757324
71	0x3f2de9e9	0.67935044
72	0x3f6e6555	0.9312337
73	0xbf591212	-0.847932
74	0xbe3dbfc2	-0.18530181
75	0xbf9a29ac	-1.2043967
76	0xbd903126	-0.07040624
77	0x3f1e5d3c	0.61861014
78	0x3e9403b1	0.28909066
79	0x3efe500e	0.49670452
80	0xbee5132b	-0.44741186
81	0x3d884e74	0.06655589
82	0xbf00b30b	-0.502732
83	0xbeccb2e1	-0.39980224
84	0xbf032473	-0.5122749
85	0x3ea398cf	0.3195252
86	0xbf0eb903	-0.55751055
87	0x3e875096	0.2642867
88	0x3f6b3742	0.9188119
89	0x3e4cc5ee	0.19997379
90	0x3e4344dc	0.19069237
91	0xbf5c0c9e	-0.8595675
92	0xbcd45ad0	-0.025922209
93	0xbf854fe0	-1.0415001
94	0x3ef3c397	0.4761016
95	0x3f4293aa	0.7600657
96	0x3e203c49	0.15647997
97	0x3d85d920	0.06535554
98	0xba964b82	-0.0011466595
99	0xbf302ddc	-0.68819976
100	0x3f1992e9	0.5998979
101	0xbed9b17a	-0.42518216
102	0x3e4079fc	0.18796533
103	0x3d987532	0.07444228
104	0x3f6878a1	0.90809065
105	0xbd90bf36	-0.070677206
106	0x3f038036	0.5136751
107	0xbe83b7f6	-0.2572629
108	0xbd3209b0	-0.04346627
109	0x3e14316c	0.14471978
110	0x3e0b14bb	0.13582127
111	0x3f0e5ea5	0.55613166
112	0x3f1bae49	0.60812813
113	0xbe7d6d3a	-0.24748698
114	0x3ee898a8	0.45428967
115	0x3df72df1	0.120693095
116	0xbe85c54b	-0.26127085
117	0xbf8017e1	-1.0007287
118	0xbf2b711f	-0.66969484
119	0xbed68d01	-0.41904452
120	0x3e9cc3ea	0.3061822
121	0xbe9ffe6c	-0.31248796
122	0x3dc5134e	0.09622823
123	0x3e12cf9b	0.14337008
124	0x3f0e7a62	0.5565549
125	0xbf185f62	-0.5952054
126	0xbb80e7eb	-0.003933897
127	0x3e77894f	0.24173473
128	0xbfc6d3be	-1.5533369
129	0x3f8bd473	1.0924209
130	0x3e9cd1c4	0.30628788
131	0xbdf4eae8	-0.11958867
132	0x3e08fa91	0.13376833
133	0xbdf65ce0	-0.12029433
134	0x3e9853de	0.29751486
135	0xbe17f97c	-0.14841264
136	0x3f480247	0.78128475
137	0x3edde10e	0.43335766
138	0x3f0a981d	0.54138356
139	0xbe356b3c	-0.17716688
140	0x3e6d213e	0.23157212
141	0x3e2262ae	0.15857956
142	0x3e91e673	0.2849613
143	0xbe489a4c	-0.1959011
144	0xbf21a0fc	-0.6313627
145	0x3ed26caa	0.4109853
146	0x3f16bd12	0.5888225
147	0x3ee091db	0.4386128
148	0x3cf4464d	0.029818678
149	0xbe2b5d39	-0.1673478
150	0x3f139028	0.5764184
151	0x3f7fcfc0	0.99926376
152	0x3f44fa3a	0.76944315
153	0x3f01de7d	0.50730115
154	0x3f66e05b	0.9018609
155	0x3db05266	0.08609466
156	0x3cb2dd93	0.02183417
157	0x3ea3aaf6	0.3196637
158	0x3f6404db	0.8906991
159	0x3e0f7829	0.14010681
160	0xbdb98fd7	-0.090606384
161	0x3f3aa27d	0.7290419
162	0xbf1a1c9b	-0.601999
163	0x3f1e7536	0.618976
164	0xbe4aaaa4	-0.19791657
165	0x3f297b02	0.6620332
166	0xbf374976	-0.7159647
167	0x3f53fc06	0.8280643
168	0xbef512f4	-0.47866023
169	0x3f4ae052	0.79248536
170	0xbfaf4df7	-1.3695668
171	0xbc8e0f3d	-0.01734125
172	0xbd641df4	-0.055692628
173	0xbdce16aa	-0.100629166
174	0xbf5f2560	-0.87166405
175	0x3f8c178a	1.0944684
176	0xbeb051dd	-0.34437457
177	0x3e80ef19	0.25182417
178	0xbf2af4b7	-0.66779655
179	0xbf1fe18a	-0.6245352
180	0x3dd5226a	0.104069546
181	0xbd8df541	-0.06931544
182	0xbf17725f	-0.5915889
183	0xbe409bdc	-0.18809456
184	0xbe49e908	-0.197178
185	0xbcc62151	-0.024185808
186	0x3f0176c1	0.5057183
187	0x3c8e9bca	0.01740827
188	0xbe28d9e2	-0.16489366
189	0x3f0f2360	0.5591335
190	0x3f296487	0.6616902
191	0x3ee050d8	0.4381168
192	0x3f111f2b	0.56688184
193	0x2eb2b653	8.12689e-11
194	0xbe66385f	-0.22482441
195	0xbf7bd50e	-0.9837197
196	0x3d12cfcc	0.0358427
197	0xbd5ededb	-0.05441175
198	0xbe07541c	-0.13215679
199	0xbeb2dc39	-0.34933642
200	0xbec8e82e	-0.3923964
201	0xbedc4f32	-0.4302917
202	0x3dafbb8d	0.08580694
203	0x3f9600d0	1.1718998
204	0x3d51adea	0.051191248
205	0xbee1fbc0	-0.44137383
206	0xbf0b8db0	-0.5451307
207	0xbf1b01b7	-0.6054949
208	0xbf05c503	-0.5225374
209	0x3ebdcd0c	0.370705
210	0xbf0f91ad	-0.5608166
211	0x3f4adf0a	0.7924658
212	0x3f1424b9	0.57868534
213	0x3d29759d	0.04137193
214	0xbdbdf6fb	-0.092756234
215	0x3d6299b9	0.055322383
216	0xbe4270ad	-0.18988295
217	0xbdf97acf	-0.12181627
218	0xbf5c9d06	-0.861771
219	0xbe659d2d	-0.22423239
220	0x3f0ecc24	0.55780244
221	0x3e93fa19	0.28901747
222	0xbc9af809	-0.0189171
223	0x3fbbdf68	1.4677553
224	0x3fb42d71	1.4076368
225	0x3d4a0d87	0.049329307
226	0x3dc0f314	0.094213635
227	0xbedecaa6	-0.43513983
228	0x3ddf7d26	0.10912542
229	0xbf7432a1	-0.95389754
230	0xbe5952ce	-0.21222994
231	0x3ed4e203	0.41578683
232	0xbe997d73	-0.29978523
233	0xbf26c0f4	-0.65138173
234	0xbe0f7aca	-0.14011684
235	0xbec4b4ce	-0.38419193
236	0x3efa774f	0.4891915
237	0xbe3bce7e	-0.1834049
238	0xbf4aa055	-0.791509
239	0x3e2b6091	0.16736056
240	0x3ec77e59	0.38963583
241	0x3f3aa6e6	0.72910917
242	0xbea226bf	-0.31670186
243	0xbeac7dd3	-0.33689746
244	0xbe99fcc3	-0.30075654
245	0xbf1e0cf5	-0.6173852
246	0x3ed6e89e	0.41974348
247	0x3efd2144	0.49439442
248	0xbe84315f	-0.25818917
249	0x3f81459c	1.0099368
250	0x3e65a272	0.22425249
251	0xbc6b8cac	-0.0143768005
252	0x3f839227	1.0278977
253	0x3d049853	0.03237183
254	0x3d2f6a33	0.04282589
255	0x3e8aa788	0.2708094

s4_layers.0.kernel.log_dt f4 [128]
0	0xc0a94fae	-5.2909765
1	0xc0a8b4be	-5.2720633
2	0xc02629ce	-2.5963016
3	0xc0989286	-4.767886
4	0xc07a7670	-3.9134789
5	0xc0a220f6	-5.0665236
6	0xc0d03e03	-6.50757
7	0xc09bec2d	-4.87258
8	0xc020bc15	-2.5114796
9	0xc0b0f708	-5.530155
10	0xc0cdd55e	-6.432296
11	0xc0c4ea13	-6.1535735
12	0xc098eb6b	-4.7787375
13	0xc02ab32a	-2.6671853
14	0xc0d86f4a	-6.763585
15	0xc0bd7e59	-5.9216733
16	0xc0c1b052	-6.0527735
17	0xc0858757	-4.172771
18	0xc0d894e6	-6.768176
19	0xc0d95b89	-6.7924237
20	0xc02149e5	-2.5201352
21	0xc0be4e89	-5.947087
22	0xc0985aba	-4.761075
23	0xc05179dd	-3.273063
24	0xc04dd97b	-3.216399
25	0xc0763d88	-3.8475056
26	0xc04f6a60	-3.2408676
27	0xc053fdc1	-3.312363
28	0xc0a2f64a	-5.0925646
29	0xc03d2042	-2.9550939
30	0xc0cb520c	-6.3537655
31	0xc0c256e6	-6.0731077
32	0xc05e78df	-3.4761274
33	0xc017e678	-2.3734417
34	0xc08846d4	-4.258646
35	0xc045a86b	-3.0884044
36	0xc08b482b	-4.3525596
37	0xc0b3a4fb	-5.613889
38	0xc0ce8023	-6.4531417
39	0xc096aa1b	-4.708265
40	0xc0a3d297	-5.119457
41	0xc07068a4	-3.7563868
42	0xc08ec165	-4.4611077
43	0xc0c732c4	-6.224947
44	0xc04285db	-3.03942
45	0xc0cfe99e	-6.4972677
46	0xc05c9dbe	-3.4471278
47	0xc09e9a87	-4.956363
48	0xc08585f6	-4.1726027
49	0xc08c00d7	-4.3751025
50	0xc030685b	-2.7563694
51	0xc0636c65	-3.5534909
52	0xc0a0d133	-5.025537
53	0xc0418e62	-3.0243154
54	0xc0ccbf93	-6.3983855
55	0xc0344d1c	-2.8172064
56	0xc0a2c098	-5.08601
57	0xc089973b	-4.2997108
58	0xc05a434c	-3.4103575
59	0xc0d6533f	-6.697662
60	0xc0dd4e12	-6.91578
61	0xc0a3f7e9	-5.1240125
62	0xc00bb483	-2.1828926
63	0xc02949d6	-2.6451316
64	0xc0c88fcb	-6.267553
65	0xc05a962e	-3.4154162
66	0xc0341896	-2.8140006
67	0xc02ab2d2	-2.6671643
68	0xc0ab19e4	-5.3469105
69	0xc03f835b	-2.9923923
70	0xc0b1215c	-5.535322
71	0xc025d971	-2.5913966
72	0xc0b380ef	-5.609489
73	0xc0c8ff08	-6.2811317
74	0xc0a304c6	-5.0943327
75	0xc07951c7	-3.8956163
76	0xc09e712a	-4.951314
77	0xc0c420fc	-6.1290264
78	0xc0d965a8	-6.793659
79	0xc0a03a76	-5.0071363
80	0xc0c16842	-6.043977
81	0xc0599556	-3.3997397
82	0xc0979551	-4.736977
83	0xc0b69872	-5.706109
84	0xc0c9f417	-6.311046
85	0xc022c491	-2.5432475
86	0xc0ac6275	-5.3870187
87	0xc048548e	-3.1301608
88	0xc05f0b57	-3.4850671
89	0xc01cd9d8	-2.4507961
90	0xc0c98ddf	-6.2985682
91	0xc073f0fd	-3.8115838
92	0xc09e39ce	-4.944556
93	0xc06edf1e	-3.732368
94	0xc09536f2	-4.662957
95	0xc081d9a6	-4.0578184
96	0xc0db81ef	-6.859611
97	0xc083e0f7	-4.1212115
98	0xc0a91d28	-5.284809
99	0xc08d4b6c	-4.415457
100	0xc05153ba	-3.2707353
101	0xc03670f1	-2.8506434
102	0xc0a8c896	-5.2744856
103	0xc0b74315	-5.7269387
104	0xc03e492c	-2.973216
105	0xc0aacaa7	-5.337238
106	0xc09fab63	-4.989671
107	0xc0bc3cea	-5.882436
108	0xc09c0db5	-4.876673
109	0xc05981e2	-3.3985524
110	0xc0a4abc2	-5.1459665
111	0xc0c289ea	-6.079335
112	0xc05b0083	-3.4219062
113	0xc0ce39f8	-6.4445763
114	0xc0a2d865	-5.0889153
115	0xc04ba167	-3.1817262
116	0xc045bcfe	-3.0896602
117	0xc08fbfc5	-4.4921594
118	0xc0c57685	-6.1707177
119	0xc03cacaa	-2.9480386
120	0xc0a3822d	-5.1096406
121	0xc0c3571e	-6.1043844
122	0xc0d7ece0	-6.7476654
123	0xc092bfd9	-4.585919
124	0xc0b50c24	-5.657732
125	0xc05cc626	-3.449594
126	0xc095eb9d	-4.6850114
127	0xc019da81	-2.4039614

s4_layers.0.kernel.log_A_real f4 [128, 32]
0	0xbf6fa697	-0.9361357
1	0xbfcdb8cc	-1.607202
2	0xbef2b62f	-0.4740462
3	0xbe98e373	-0.2986103
4	0xbe27e19d	-0.16394658
5	0xbf323ff4	-0.69628835
6	0xbf973926	-1.1814315
7	0xbee91cc2	-0.45529753
8	0xbf440c52	-0.765813
9	0xbf312437	-0.69195884
10	0xbf429ecc	-0.76023555
11	0xbf6fa84c	-0.93616176
12	0xbe4096d6	-0.1880754
13	0xbec79f6c	-0.38988817
14	0xbecc6f7a	-0.399288
15	0xbf0c21b8	-0.5473895
16	0x3e5cb24e	0.21552393
17	0xbf511d0f	-0.81684965
18	0xbf0639fe	-0.5243224
19	0xbeb0978c	-0.3449062
20	0xbe73aef9	-0.23797216
21	0xbf3ee18e	-0.7456292
22	0xbf211c44	-0.62933755
23	0xbedfb09e	-0.43689436
24	0xbf5fccea	-0.8742205
25	0xbe2ed4bf	-0.17073344
26	0xbee047a5	-0.4380466
27	0xbf58dfa3	-0.8471624
28	0xbf036a00	-0.5133362
29	0x3de0754f	0.10959875
30	0xbf3fc86e	-0.74915206
31	0xbf4e179e	-0.80504787
32	0xbd8aa3f4	-0.06769553
33	0xbed7a5e4	-0.42118752
34	0xbfc0f34f	-1.5074252
35	0xbf556d79	-0.83370167
36	0xbf0a1713	-0.5394146
37	0xbf4af6cf	-0.7928285
38	0xbefcb497	-0.4935653
39	0xbea28546	-0.31742305
40	0xbe7e654a	-0.24843326
41	0xbf3041f0	-0.6885061
42	0xbf4362d3	-0.7632267
43	0xbed83342	-0.42226607
44	0xbf2dd562	-0.6790372
45	0xbf3ecf64	-0.745352
46	0xbf34ef15	-0.7067731
47	0xbf4c89cd	-0.7989777
48	0xbeafa4d4	-0.3430544
49	0xbf49b3c1	-0.7878991
50	0xbc937fe7	-0.018005325
51	0xbe8ea0e3	-0.27857122
52	0xbf15ee10	-0.5856638
53	0xbea7b8b4	-0.32758105
54	0xbf28ac6e	-0.65888107
55	0xbf15b838	-0.5848422
56	0xbea3139e	-0.31850904
57	0xbf6ce2e4	-0.9253371
58	0xbdfae8ec	-0.122514576
59	0xbf5635e2	-0.8367597
60	0xbec73497	-0.3890731
61	0xbec50d57	-0.3848674
62	0xbf3715ac	-0.71517444
63	0xbec20866	-0.37897032
64	0xbf8f3293	-1.1187309
65	0xbf4c450d	-0.79792863
66	0xbf627b74	-0.88469625
67	0xbf541af1	-0.8285361
68	0xbf4fba3d	-0.8114355
69	0xbf7d7435	-0.9900544
70	0xbf1efec6	-0.62107503
71	0xbf54a0ad	-0.8305767
72	0xbef04def	-0.4693446
73	0xbf506ccd	-0.81416017
74	0xbf2ce9ca	-0.67544234
75	0xbf32f563	-0.6990568
76	0xbf5dacc6	-0.86591756
77	0xbf5b2b4e	-0.8561295
78	0xbf3272b3	-0.6970627
79	0xbf582815	-0.8443616
80	0xbf18b663	-0.596533
81	0xbf0adcea	-0.5424334
82	0xbf2fd109	-0.6867834
83	0xbf0574d3	-0.52131385
84	0xbed643c0	-0.41848564
85	0xbf09f88e	-0.5389489
86	0xbf4c2ac0	-0.7975273
87	0xbed03178	-0.40662742
88	0xbf1937f9	-0.5985103
89	0xbf1719c8	-0.59023714
90	0xbf384533	-0.7198059
91	0xbf0d7f99	-0.55272824
92	0xbf2611d7	-0.6487097
93	0xbf542931	-0.82875353
94	0xbef8e82a	-0.48614627
95	0xbf317835	-0.69324046
96	0xbefd5da2	-0.494855
97	0xbfaf7dd7	-1.3710278
98	0xbeefff11	-0.46874288
99	0xbf086782	-0.5328294
100	0xbf24a94b	-0.6432082
101	0xbf58794f	-0.845601
102	0xbf2fa261	-0.68607146
103	0xbf640089	-0.89063317
104	0xbe08e663	-0.13369136
105	0xbe9cc401	-0.3061829
106	0xbf467cbe	-0.7753409
107	0xbede0737	-0.4336488
108	0xbf1888a8	-0.5958352
109	0xbf0f412a	-0.5595881
110	0xbf4b7441	-0.79474264
111	0xbf8f64dc	-1.1202655
112	0xbf989f89	-1.1923686
113	0xbef70118	-0.48243022
114	0xbfdda5f1	-1.7316266
115	0xbfad680c	-1.3547378
116	0xbf7606fd	-0.96104413
117	0xbf5d144e	-0.8635911
118	0xbf3679b2	-0.7127944
119	0xbfd3e217	-1.6553372
120	0xbf9ac9d3	-1.2092842
121	0xbf41dd78	-0.7572856
122	0xbf7b5366	-0.9817413
123	0xbf5b7385	-0.85723144
124	0xbfa27dcd	-1.2694641
125	0xbeee924e	-0.46595997
126	0xbf4dc862	-0.80383885
127	0xbf2ccc8b	-0.6749961
128	0xbefcbb3c	-0.49361598
129	0xbf9ef221	-1.2417642
130	0xbf8932ce	-1.0718629
131	0xbf7fc6a6	-0.9991249
132	0xbf82a0aa	-1.0205281
133	0xbf91bdd7	-1.138606
134	0xbf369cb4	-0.7133286
135	0xbf73db6e	-0.952567
136	0xbf1e5981	-0.6185532
137	0xbf6ab85e	-0.9168757
138	0x3ecf96a5	0.4054462
139	0xbf2842a2	-0.65726674
140	0xbefdc2cf	-0.4956269
141	0xbf7c1cfb	-0.9848172
142	0xbec54bab	-0.38534293
143	0xbe6b686f	-0.22989057
144	0xbe9eb221	-0.30995277
145	0xbf6df87f	-0.929573
146	0xbf3d0be0	-0.73846245
147	0xbf01179e	-0.5042666
148	0xbf247751	-0.6424456
149	0xbf804d0d	-1.0023514
150	0xbef4fa51	-0.47847226
151	0xbf1d53f2	-0.61456215
152	0xbef16d6c	-0.47153795
153	0xbf42e261	-0.76126677
154	0xbebc6830	-0.3679824
155	0xbee7d63d	-0.45280638
156	0xbf36b579	-0.71370655
157	0xbf6dc6c6	-0.9288143
158	0xbf01d21c	-0.50711226
159	0xbf04ecb5	-0.51923686
160	0xbf35b047	-0.709721
161	0xbf889053	-1.0669044
162	0xbf41f8c6	-0.75770223
163	0xbf0f576d	-0.55992776
164	0xbf28e33b	-0.65971726
165	0xbf3d83b1	-0.7402907
166	0xbf11cbd6	-0.56951654
167	0xbf0b03c9	-0.5430265
168	0xbf39e9b8	-0.7262225
169	0xbf16188c	-0.58631206
170	0xbf158a97	-0.58414596
171	0xbf220502	-0.6328889
172	0xbf01bf31	-0.5068236
173	0xbeaa06cd	-0.33208314
174	0xbe1e7af7	-0.15476595
175	0xbead6340	-0.33864784
176	0xbf84ebc0	-1.0384445
177	0xbf3acb6e	-0.7296666
178	0xbed77829	-0.42083862
179	0xbedee92f	-0.4353728
180	0xbf673946	-0.9032177
181	0xbe74131c	-0.23835415
182	0xbf52995b	-0.8226525
183	0xbedd3459	-0.43204
184	0xbe8d2ade	-0.27571768
185	0xbf95d027	-1.1704148
186	0xbf289774	-0.658561
187	0xbf1c701d	-0.6110857
188	0xbfb0f542	-1.3824847
189	0xbf266c96	-0.6500944
190	0xbf58de64	-0.8471434
191	0xbf021da3	-0.5082647
192	0xbf2854d0	-0.65754414
193	0xbefe8139	-0.49707964
194	0x3e7bce4d	0.24590416
195	0xbf963319	-1.1734344
196	0xbf53e41e	-0.82769954
197	0xbe99799c	-0.29975593
198	0xbfdb76b9	-1.7145606
199	0xbfdb73cf	-1.7144717
200	0xbf72553a	-0.94661295
201	0xbecda3ab	-0.4016393
202	0xbf3234a8	-0.696116
203	0xbf59bcf9	-0.85053974
204	0xbf078c4c	-0.5294845
205	0xbf69985e	-0.9124812
206	0xbf41537c	-0.7551801
207	0xbeee1c83	-0.46506128
208	0xbf79db6c	-0.97600436
209	0xbf0fc382	-0.56157696
210	0xbf082598	-0.53182364
211	0xbf50283a	-0.8131138
212	0xbf32f25a	-0.6990105
213	0xbf3661b4	-0.71242833
214	0xbf1e1827	-0.61755604
215	0xbf47d16e	-0.7805394
216	0xbeefd75f	-0.46844003
217	0xbc8d1ac9	-0.017224686
218	0xbf4d12b3	-0.8010666
219	0xbf52eded	-0.82394296
220	0xbe4d427d	-0.20044895
221	0xbf144d68	-0.5793061
222	0xbe9969fc	-0.29963672
223	0xbeec6b0e	-0.46175426
224	0xbf39da30	-0.7259855
225	0xbf88b031	-1.0678769
226	0xbf81556c	-1.0104194
227	0xbf1857b9	-0.59508854
228	0xbf579bf8	-0.84222364
229	0xbf3b14e6	-0.73078763
230	0xbee72b9c	-0.4515046
231	0xbf1a0c32	-0.6017486
232	0xbe45c87c	-0.1931476
233	0xbee9d5a1	-0.45670798
234	0x3db7f055	0.089813866
235	0xbeacadbc	-0.337263
236	0xbede9d14	-0.43479216
237	0xbe23a01e	-0.15979049
238	0xbef88b74	-0.48543894
239	0xbf1e7d9e	-0.61910427
240	0xbec98a10	-0.39363146
241	0xbf2c23f6	-0.6724237
242	0xbf28edae	-0.6598767
243	0xbe993f42	-0.29931074
244	0xbda6425e	-0.08118127
245	0xbefe8467	-0.4971039
246	0xbe6a78fd	-0.22897716
247	0xbf3a01ab	-0.72658795
248	0xbed2d83a	-0.41180593
249	0xbf15ac50	-0.58466053
250	0xbef9ff63	-0.48827657
251	0x3da425cf	0.08015024
252	0xbf653358	-0.8953147
253	0xbf70bf0d	-0.9404152
254	0xbec1f7a4	-0.37884247
255	0xbefab0c5	-0.4896299

s4_layers.0.kernel.A_imag f4 [128, 32]
0	0x3ef02dea	0.4691003
1	0x404dd1e7	3.2159364
2	0x40c84b67	6.2592044
3	0x4113f5cc	9.247509
4	0x4145b16e	12.355818
5	0x41790555	15.563802
6	0x4196b108	18.836441
7	0x41b4890d	22.56692
8	0x41ce47ee	25.785122
9	0x41e43704	28.526863
10	0x41fde53b	31.736929
11	0x42097155	34.360676
12	0x421635c9	37.552525
13	0x4222d5f7	40.70895
14	0x422e5d63	43.591198
15	0x423bf43b	46.988506
16	0x42499c2e	50.40252
17	0x4254f3e2	53.238167
18	0x4263db71	56.9643
19	0x426da8bf	59.41479
20	0x427c4ca6	63.074852
21	0x428424f5	66.07218
22	0x4289dfc1	68.93702
23	0x4290b2cc	72.34921
24	0x429673f9	75.22651
25	0x429b7d41	77.74464
26	0x42a2fbd7	81.491875
27	0x42aa6abe	85.20848
28	0x42ae9636	87.29338
29	0x42b649ae	91.143906
30	0x42bc26c8	94.075745
31	0x42c282d5	97.25553
32	0x3e8b2d4c	0.27182996
33	0x403b1efb	2.923766
34	0x40c8498f	6.2589793
35	0x411b87e2	9.7206745
36	0x41487dbb	12.530696
37	0x417a1929	15.631143
38	0x4198cd62	19.100285
39	0x41aa338d	21.275171
40	0x41c8c7a8	25.097488
41	0x41e15517	28.166548
42	0x41fc4b44	31.53675
43	0x4208e17e	34.220207
44	0x4216fddd	37.747913
45	0x4221e486	40.473167
46	0x422e9f9f	43.65588
47	0x423c8d50	47.138
48	0x424bb0a8	50.922516
49	0x42571839	53.773655
50	0x4261ed79	56.481907
51	0x426fe368	59.972076
52	0x427aa2a4	62.65883
53	0x42851d51	66.55726
54	0x428a4271	69.12977
55	0x42912660	72.57495
56	0x4298041e	76.00804
57	0x429d3b20	78.61548
58	0x42a36ba1	81.71021
59	0x42a947ee	84.64049
60	0x42af8f92	87.78041
61	0x42b6314f	91.096306
62	0x42bc9f9e	94.31175
63	0x42c1e735	96.95158
64	0x3e2aa8d6	0.16665968
65	0x404f3cce	3.2380862
66	0x40b674d1	5.70176
67	0x41194c2c	9.581097
68	0x41441d8c	12.257214
69	0x417e53bb	15.895442
70	0x4196007b	18.750235
71	0x41b1b872	22.215061
72	0x41c84c48	25.037247
73	0x41e09ba7	28.076002
74	0x41fd82fa	31.688953
75	0x42097086	34.359886
76	0x4215ca74	37.44771
77	0x42222977	40.540493
78	0x422f3ce3	43.80946
79	0x423bf027	46.984524
80	0x42484550	50.067688
81	0x42550890	53.25836
82	0x42619bab	56.40202
83	0x426e2ddb	59.54478
84	0x427ab2d9	62.674656
85	0x4284d429	66.414375
86	0x428a5aaa	69.17708
87	0x42907adb	72.23995
88	0x4296d67a	75.4189
89	0x429da397	78.81951
90	0x42a374f1	81.7284
91	0x42aa11ca	85.034744
92	0x42b08389	88.256905
93	0x42b64901	91.142586
94	0x42bc6419	94.1955
95	0x42c2a33e	97.31883
96	0x2f9f29cf	2.8951638e-10
97	0x404b9536	3.180982
98	0x40c810d1	6.252053
99	0x41165be6	9.397436
100	0x4153e15c	13.242519
101	0x417743b4	15.454029
102	0x419994d0	19.197662
103	0x41afb558	21.963547
104	0x41c668c3	24.801153
105	0x41e30e93	28.382116
106	0x41fb6352	31.423496
107	0x420b3b82	34.808113
108	0x4219feea	38.49894
109	0x4220ec04	40.230484
110	0x42317f10	44.374084
111	0x423d00a8	47.25064
112	0x4248c0d4	50.18831
113	0x42538b26	52.885887
114	0x4261dad2	56.46369
115	0x426e4a7a	59.57273
116	0x427a109f	62.51623
117	0x428555f1	66.667854
118	0x428a735f	69.225334
119	0x4291c76f	72.88952
120	0x42963853	75.11001
121	0x429e6af6	79.20891
122	0x42a33cbe	81.61864
123	0x42aa778a	85.233475
124	0x42af304f	87.59435
125	0x42b6e43e	91.445786
126	0x42bc22a0	94.06763
127	0x42c29f8f	97.31164
128	0x3b77913f	0.0037775782
129	0x405488d7	3.320852
130	0x40c277d2	6.0771265
131	0x411757c5	9.458928
132	0x4149c4af	12.610518
133	0x417aa369	15.664895
134	0x4190e15b	18.110037
135	0x41adf148	21.742813
136	0x41cb505d	25.41424
137	0x41de0254	27.751137
138	0x41fdfac7	31.74745
139	0x4209c534	34.44258
140	0x4215478d	37.319874
141	0x42237994	40.86873
142	0x422f0d08	43.762726
143	0x423df532	47.48945
144	0x42493f20	50.311646
145	0x42551ed8	53.28012
146	0x4260f9c9	56.24393
147	0x426f5810	59.836
148	0x427b03cd	62.75371
149	0x42835ba6	65.679
150	0x428a292c	69.080414
151	0x428fcf8d	71.90537
152	0x42977ee3	75.747826
153	0x429c8a8b	78.27059
154	0x42a421f7	82.06634
155	0x42a9208d	84.563576
156	0x42af4e1f	87.65258
157	0x42b689ad	91.2689
158	0x42bc4e81	94.15333
159	0x42c3245a	97.571
160	0x39a76569	0.0003192828
161	0x403ef69d	2.983802
162	0x40c324b9	6.0982327
163	0x4117b5a1	9.481843
164	0x414a79f8	12.654778
165	0x418152b3	16.16538
166	0x4198ae98	19.08525
167	0x41ac338c	21.52517
168	0x41cac4b9	25.346056
169	0x41e12689	28.143816
170	0x42011eae	32.27996
171	0x4208939a	34.144142
172	0x4216a782	37.66358
173	0x42221a08	40.52542
174	0x422fd56b	43.958416
175	0x423bd5b2	46.958687
176	0x4249e867	50.476955
177	0x42542f07	53.045925
178	0x425ed909	55.71195
179	0x426edd19	59.715916
180	0x427bceda	62.952003
181	0x42835d39	65.682076
182	0x428b15fe	69.54295
183	0x429083f5	72.25773
184	0x42967112	75.22084
185	0x429db0b1	78.8451
186	0x42a3f628	81.980774
187	0x42a95b4d	84.67832
188	0x42b01465	88.03983
189	0x42b6d1cd	91.40977
190	0x42bc8b99	94.27265
191	0x42c3046d	97.508644
192	0xa5dc89fa	-3.8257413e-16
193	0x4053951e	3.3059764
194	0x40cbf2c7	6.373386
195	0x411a6011	9.648454
196	0x4148b6de	12.544645
197	0x417d5ddd	15.835416
198	0x41956e73	18.67893
199	0x41b0dfcd	22.109278
200	0x41c9dc94	25.232704
201	0x41e046eb	28.034628
202	0x41fa5629	31.29207
203	0x420ad978	34.71237
204	0x4217824e	37.87725
205	0x4220f2be	40.237053
206	0x422fce44	43.95143
207	0x423efbc9	47.745884
208	0x424a4974	50.57173
209	0x4256c429	53.691563
210	0x4260306a	56.04728
211	0x426fd29a	59.955666
212	0x427a6ea2	62.60804
213	0x42850527	66.51006
214	0x4289cd98	68.90155
215	0x428f6eab	71.71615
216	0x42978adc	75.77121
217	0x429e85d5	79.26139
218	0x42a31dd9	81.5583
219	0x42a85034	84.15665
220	0x42af7a5c	87.73898
221	0x42b71a81	91.551765
222	0x42bbb0f0	93.84558
223	0x42c20263	97.00466
224	0xbea308e6	-0.31842726
225	0x403f8663	2.9925773
226	0x40cd5fcf	6.4179454
227	0x4113c77a	9.2362
228	0x41464310	12.391373
229	0x41830b7a	16.380604
230	0x419a0f42	19.25745
231	0x41b05c6c	22.045128
232	0x41c51988	24.637466
233	0x41df979f	27.949034
234	0x41fe013d	31.750605
235	0x4209a856	34.41439
236	0x4217cc98	37.9498
237	0x4225686c	41.351974
238	0x422f4443	43.81666
239	0x423be18c	46.97026
240	0x424b781d	50.8673
241	0x4256d53d	53.70824
242	0x4260d819	56.211033
243	0x426dccce	59.450005
244	0x427c0753	63.007153
245	0x4282c60f	65.38683
246	0x4289476e	68.63951
247	0x429080d3	72.25161
248	0x42964514	75.13492
249	0x429c8dc3	78.27688
250	0x42a5245b	82.57101
251	0x42a8a935	84.33048
252	0x42b0768d	88.231544
253	0x42b55014	90.6564
254	0x42bd1ac8	94.55231
255	0x42c26986	97.2061

s4_layers.0.output_linear.0.weight f4 [256, 128, 1]
0	0xbe40b096	-0.18817362
1	0xbe2a8114	-0.16650802
2	0xbe2f3ec1	-0.17113782
3	0xbdceab91	-0.100913174
4	0xbdc5b19e	-0.096530184
5	0x3d8eaeef	0.0696696
6	0xbe1f4a8f	-0.15555786
7	0x3d97e4db	0.074166976
8	0xbe240000	-0.16015625
9	0x3d9ed331	0.07755125
10	0xbdaf0d60	-0.08547473
11	0xbbc1ba8f	-0.005912132
12	0xbe7f1bf2	-0.24913004
13	0xbdd2d895	-0.10295216
14	0x3c61cd69	0.013781884
15	0xbc3ff5ac	-0.011716288
16	0x3cfdc755	0.030978838
17	0x3ce27953	0.027645743
18	0xbd9a0282	-0.075200096
19	0xbbfbbb28	-0.007682223
20	0x3df35e27	0.118831925
21	0x3e63a39e	0.22230384
22	0xbdeab09b	-0.11459466
23	0x3d2f9ff1	0.04287714
24	0xbe082fbe	-0.13299462
25	0x3dcf02c1	0.10107947
26	0x3e23db34	0.16001588
27	0x3cc3189d	0.023815447
28	0xbe1ea778	-0.15493572
29	0x3e30106a	0.17193761
30	0xbde19c66	-0.11016159
31	0x3cb7a769	0.022418695
32	0xbd48c0fd	-0.049012173
33	0xbdf345f6	-0.11878578
34	0x3e77331b	0.24140589
35	0xbe1aecf5	-0.15129454
36	0x3c9d1a33	0.019177532
37	0xbdbbb300	-0.09165001
38	0xbd0cd946	-0.034386896
39	0x3ca944c9	0.020662682
40	0x3ca8c925	0.020603726
41	0x3dc559bb	0.09636255
42	0x3e2c4d4e	0.16826364
43	0x3dbbff9b	0.09179612
44	0x3de88d71	0.11355103
45	0x3c1c844a	0.009553025
46	0x3dcd1a69	0.10014803
47	0x3cdac79b	0.026706507
48	0x3e5dad12	0.21648052
49	0x3cc29cd3	0.02375642
50	0x3ea8d8d2	0.3297792
51	0xbdc5b081	-0.09652806
52	0xbd2976bb	-0.041372996
53	0x3d2eb70b	0.042655032
54	0xbda62613	-0.08112731
55	0x3e1bdf6e	0.1522195
56	0xbe20adb5	-0.15691264
57	0x3d2e5db3	0.042569827
58	0x3e7bb348	0.24580109
59	0x3e15d19d	0.14630742
60	0xbe4ff817	-0.20309483
61	0xbe8afb83	-0.27145013
62	0xbe836ab0	-0.25667334
63	0xbd653125	-0.05595507
64	0xbdeaaba0	-0.11458516
65	0x3e18c0f0	0.1491735
66	0x3bbd374b	0.0057744137
67	0x3e93da87	0.2887766
68	0xbe8bf680	-0.27336502
69	0x3e0c77f6	0.13717636
70	0xbeafbc1a	-0.34323198
71	0x3e0a8945	0.13528927
72	0x3d30cfcd	0.043166924
73	0x3d2c1def	0.042020734
74	0x3b83b702	0.004019619
75	0x3e3799c9	0.17929758
76	0xbd8071af	-0.062716834
77	0xbe06cee1	-0.13164856
78	0x3de93797	0.11387556
79	0x3d0dae39	0.03458998
80	0x3ce1f5f0	0.027583092
81	0xbddfeab6	-0.109334394
82	0xbbaa1415	-0.0051903822
83	0xbde6e1d9	-0.11273546
84	0xbd30fd34	-0.043210223
85	0x3ebb4b13	0.36580715
86	0xbe11e15f	-0.14246128
87	0x3e03dd5f	0.12877415
88	0xbe216c1f	-0.15763901
89	0x3d0dfa8a	0.03466276
90	0x3e3aaa1e	0.18228957
91	0xbe6a2763	-0.22866587
92	0xbe465398	-0.19367826
93	0x3e8023a3	0.2502719
94	0x3d5f64c4	0.054539457
95	0x3d33557e	0.043782704
96	0x3cfc5eee	0.030806985
97	0xbe7d6e11	-0.24749018
98	0x3d9bbc86	0.07604317
99	0x3e5fdd23	0.218617
100	0xbdbb69f3	-0.091510676
101	0x3d85d423	0.065346025
102	0xbbf524a5	-0.007481175
103	0xbb955e22	-0.0045583406
104	0x3d9e1513	0.07718863
105	0xbd04c258	-0.032411903
106	0xbdfdc548	-0.12391144
107	0xbddecbb1	-0.10878695
108	0xbe599d47	-0.21251403
109	0xbe0b43b7	-0.1360005
110	0x3d34d0c7	0.044144418
111	0x3dafb39f	0.08579182
112	0x3d0d36a8	0.034475952
113	0xbd820b23	-0.063497804
114	0xbe15f319	-0.14643516
115	0x3be7cd69	0.0070740473
116	0xbd31e7e4	-0.04343404
117	0xbcbcb211	-0.023034127
118	0x3ca778d4	0.020443358
119	0x3e822177	0.25416157
120	0xbde1a583	-0.11017897
121	0xbdca7909	-0.09886367
122	0x3e3a7906	0.1821023
123	0x3d7cd0fa	0.061722733
124	0x3c9a34e4	0.018824048
125	0x3d019afb	0.03164194
126	0xbd87d117	-0.066316776
127	0xbc7009ff	-0.014650821
128	0x3e25238f	0.16126846
129	0xbe03911e	-0.12848327
130	0xbe8210dc	-0.25403488
131	0xbe02be68	-0.12767947
132	0xbd93fbfd	-0.07225797
133	0xbc73007b	-0.0148316575
134	0x3ca187a3	0.019717997
135	0x3de146c6	0.10999827
136	0xbdd27c0b	-0.102775656
137	0xbe13e52d	-0.14442892
138	0x3d4cf30e	0.050036483
139	0xbe256af5	-0.16154082
140	0xbc8ec359	-0.017427133
141	0x3d4a6836	0.04941579
142	0xbd8301e8	-0.06396848
143	0x3d1781d1	0.036989037
144	0xbdb0d414	-0.08634201
145	0x3c5acaae	0.013353987
146	0xbe489f4d	-0.19592018
147	0xbd9a98c2	-0.075486675
148	0x3e06c5f7	0.13161455
149	0xbe303028	-0.1720587
150	0x3d11a919	0.035561655
151	0x3cac2884	0.021015413
152	0xbe8d22d5	-0.27565637
153	0x3e480f0e	0.19536993
154	0x3db924bd	0.090402104
155	0xbe0f70fe	-0.14007947
156	0xbccfdf53	-0.025375044
157	0x3e0a45aa	0.13503137
158	0xbe70205d	-0.23449846
159	0x3dc91645	0.09818701
160	0x3d53b453	0.051685642
161	0x3da159f3	0.078784846
162	0x3e541009	0.20709242
163	0xbea0fda1	-0.31443503
164	0xbcfdf8a5	-0.031002352
165	0x3e28aa59	0.16471232
166	0xbde1e6aa	-0.11030324
167	0x3d6e5dc5	0.058194894
168	0xbe38e8d9	-0.18057574
169	0xbe48e278	-0.19617641
170	0x3e9008bf	0.28131673
171	0x3de0f6e0	0.10984588
172	0x3d82092d	0.063494064
173	0x3e470fa5	0.19439562
174	0x3d14abec	0.03629677
175	0xbca1df3e	-0.01975977
176	0xbe55f555	-0.20894368
177	0x3dde079f	0.10841297
178	0x3e29553b	0.16536419
179	0x3e1557d9	0.14584292
180	0x3dad015c	0.08447525
181	0x3e3a100e	0.18170187
182	0xbdd82345	-0.10553602
183	0x3e0fe20c	0.14051074
184	0xbda2f546	-0.079569384
185	0x3eb5fd67	0.35544893
186	0x3c4d142b	0.012517015
187	0xbe41a50b	-0.18910615
188	0xbb59b488	-0.0033219177
189	0xbe0b54bf	-0.13606547
190	0xbe00680c	-0.1253969
191	0xbe804f66	-0.25060576
192	0xbe101c73	-0.14073353
193	0xbd085fb9	-0.033294413
194	0xbdfb9e68	-0.12286073
195	0xbda9002f	-0.08251988
196	0xbd56433c	-0.052310213
197	0x3e40e442	0.18837073
198	0xbd971a88	-0.07378107
199	0xbd424783	-0.04743148
200	0xbd074d52	-0.033032723
201	0x3ec65da7	0.38743326
202	0xbe2f358f	-0.17110275
203	0xbd2408af	-0.040047344
204	0xbe3b1f71	-0.18273713
205	0x3dc3d633	0.0956234
206	0x3e3ef520	0.18648195
207	0x3d22d887	0.039757278
208	0x3e781361	0.24226142
209	0x3c02da78	0.007986657
210	0xbe01fc52	-0.12693909
211	0xbda2e0ee	-0.07953058
212	0x3dcb185a	0.09916754
213	0x3e97cba4	0.29647553
214	0xbe2b9a33	-0.16758041
215	0x3f083760	0.53209496
216	0x3e7a6eb0	0.24456286
217	0x3d22f572	0.039784856
218	0x3d52504f	0.05134612
219	0xbdc0c5d0	-0.0941273
220	0xbe7f168f	-0.24910949
221	0xbdc44aa6	-0.095845506
222	0xbd9aa23d	-0.07550476
223	0xbe9e8146	-0.30958003
224	0xbe539861	-0.20663597
225	0xbde2c3d8	-0.110725105
226	0x3e544ef6	0.20733246
227	0xbe494fb2	-0.19659308
228	0xbe2651bd	-0.16242118
229	0xbe746f92	-0.23870686
230	0xbe1fa665	-0.15590818
231	0xbdd75c42	-0.10515644
232	0xbd3f3a88	-0.04668668
233	0xbe57f859	-0.21090831
234	0x3c826016	0.015914958
235	0xbc1ae61f	-0.009454279
236	0x3e496a24	0.19669396
237	0x3df49051	0.11941589
238	0x3e103c81	0.1408558
239	0x3ecd1df6	0.4006192
240	0xbddfc4ca	-0.109262064
241	0xbe20c498	-0.15699995
242	0xbe1ec5ef	-0.15505193
243	0x3e3595d6	0.17732939
244	0xbb13eccf	-0.002257157
245	0xbc680dc1	-0.014163435
246	0x3de54556	0.111948654
247	0x3db058d9	0.08610696
248	0xbe002b08	-0.12516415
249	0x3e7e83d0	0.2485497
250	0xbd9817e7	-0.07426434
251	0x3eb1c47e	0.34720224
252	0xbe7e5eea	-0.24840894
253	0x3d3faab9	0.046793673
254	0x3db8defb	0.09026905
255	0xbe3d7d38	-0.18504798

s4_layers.0.output_linear.0.bias f4 [256]
0	0xbdb2bd5a	-0.08727522
1	0xbd6cd2e6	-0.057818316
2	0xbdf74e80	-0.120755196
3	0xbd963c38	-0.073357046
4	0xbc1d0357	-0.009583316
5	0x3c337921	0.010954172
6	0xbda7d29c	-0.081944674
7	0xbd93beb4	-0.07214108
8	0x3e084b19	0.13309897
9	0x3dfa64fb	0.12226292
10	0xbccdcaea	-0.025121171
11	0xbd9daa33	-0.076984785
12	0x3e001636	0.12508473
13	0x3d44ca82	0.04804469
14	0xbd9c6ee4	-0.07638338
15	0xbd23170f	-0.039816912
16	0x3d2ef3f3	0.042713117
17	0x3ddb7759	0.10716123
18	0xbdfd6ca2	-0.12374236
19	0x3d2ebf48	0.04266289
20	0x3ca5de6b	0.020247659
21	0x3c40fee6	0.0117795225
22	0x3e23cd5e	0.1599631
23	0x3d04ac88	0.0323911
24	0xbd27762d	-0.040884186
25	0xbd2119e8	-0.039331347
26	0xbd1d8723	-0.038458955
27	0x3bd5147b	0.0065026856
28	0x3c2dabbb	0.010600026
29	0xbd06a26a	-0.032869734
30	0xbd840030	-0.06445348
31	0x3c139065	0.009006594
32	0xbcfea259	-0.031083273
33	0x3d0b1aef	0.033961233
34	0x3daafd6b	0.08349117
35	0x3d891e6d	0.066952564
36	0xbd407548	-0.046986848
37	0x3d5efcb0	0.0544402
38	0x3d1382ad	0.036013294
39	0x3d107fdf	0.035278197
40	0x3d96824e	0.073490724
41	0x3bee02c9	0.0072635156
42	0x3c0f1998	0.008734129
43	0xbd96381a	-0.07334919
44	0x3e251a9f	0.16123436
45	0xbe4fdbbd	-0.20298667
46	0xbe4e6dc0	-0.20159054
47	0xba92e3c7	-0.0011206799
48	0x3d459f64	0.04824771
49	0x3d3fbf57	0.046813335
50	0xbd9d5d84	-0.07683852
51	0xbc5e2659	-0.0135589475
52	0xbc3d5600	-0.0115561485
53	0xbbf90963	-0.007599996
54	0x3cf766f9	0.030200468
55	0x3e0b1110	0.13580728
56	0xbd7f9c58	-0.06240496
57	0xbcf270e2	-0.029594842
58	0x3df67ffe	0.12036131
59	0xbd884cdb	-0.06655284
60	0x3e1d56e6	0.1536518
61	0xbc201eb9	-0.00977295
62	0x3d5e88aa	0.05432955
63	0x3df681e1	0.12036491
64	0x3d684160	0.05670297
65	0x3cd0af94	0.025474347
66	0x3dae22b1	0.085027106
67	0xbd6916b9	-0.056906436
68	0xbcc5477d	-0.02408194
69	0xbe1f9940	-0.15585804
70	0xbd18b780	-0.037284374
71	0x3d688225	0.05676474
72	0x3ddb06b6	0.106946394
73	0xbe1c9f8d	-0.15295239
74	0x3d0ba6a6	0.034094475
75	0xbdbcebc5	-0.09224657
76	0xbde5216c	-0.11188015
77	0xbd304e36	-0.043043338
78	0x3d1d6de6	0.038434885
79	0x3b93c83b	0.0045099533
80	0xbc88ad30	-0.016684145
81	0x3d9c8fac	0.07644591
82	0xbda5a5d6	-0.08088271
83	0x3e48093b	0.19534771
84	0xbdfad8c8	-0.12248379
85	0x3d95018d	0.072756864
86	0x3e1a1569	0.1504723
87	0xbe20f90b	-0.15720002
88	0x3e4e7e76	0.20165429
89	0xbdb29bbd	-0.08721111
90	0xbd4a4dbd	-0.049390543
91	0xbcb2ee06	-0.021842014
92	0x3c1f8c78	0.00973808
93	0x3cce0b49	0.025151866
94	0xbcb33e5a	-0.021880317
95	0xbbaf0f5f	-0.0053424085
96	0xbd171037	-0.036880698
97	0x3da22a3d	0.079182126
98	0xbe033c0a	-0.12815872
99	0xbb99e2d6	-0.0046962304
100	0x3bc5f95e	0.00604169
101	0xbd8d9f21	-0.06915117
102	0xbc6aa707	-0.014322049
103	0x3e59c5e7	0.212669
104	0xbd5725de	-0.052526347
105	0x3e01f5ad	0.12691374
106	0xbc905df8	-0.017622933
107	0x3cb6ee1d	0.022330338
108	0xbc2e5d2a	-0.010642329
109	0x3cc4dc39	0.024030792
110	0x3bac0e0c	0.005250698
111	0x3e1fd38b	0.15608041
112	0xbdc5aa4d	-0.09651623
113	0xbd0b5a18	-0.034021467
114	0xbc79b2a1	-0.015240342
115	0x3d403303	0.04692365
116	0x3c33e4eb	0.010979871
117	0x3cb02587	0.02150227
118	0xbd70e328	-0.058810383
119	0xbc8aa1bf	-0.01692283
120	0x3dd3bfe0	0.103393316
121	0x3d2b75a7	0.04186025
122	0x3e074207	0.13208781
123	0x3d99b689	0.07505519
124	0xbcf1e1c6	-0.029526602
125	0x3da97893	0.08274951
126	0x3db395af	0.08768784
127	0xbd868b84	-0.06569579
128	0xbe8a166e	-0.26970237
129	0xbe823f42	-0.25438887
130	0xbb2db412	-0.0026505035
131	0xbe9643f7	-0.29348728
132	0xbe3258d8	-0.17416704
133	0xbea0ff72	-0.3144489
134	0xbe679a4d	-0.22617455
135	0xbe8f9e66	-0.28050536
136	0x3e3bda29	0.1834494
137	0xbefae71d	-0.4900445
138	0xbe337058	-0.17523324
139	0xbe959ba3	-0.29220304
140	0xbe490d04	-0.19633871
141	0xbeb62c18	-0.35580516
142	0xbef6176c	-0.48064744
143	0xbd048fb1	-0.032363597
144	0xbe512e5a	-0.20427838
145	0xbe892bca	-0.2679122
146	0xbec4d102	-0.3844071
147	0xbea01a66	-0.3127014
148	0xbe774307	-0.24146663
149	0xbe36784a	-0.17819324
150	0xbde00519	-0.10938472
151	0xbe85a766	-0.26104277
152	0xbebc0514	-0.36722624
153	0xbed2745b	-0.41104397
154	0xbe044524	-0.12917
155	0xbe8c06cc	-0.27348936
156	0xbe288235	-0.1645592
157	0xbd19c17d	-0.03753804
158	0xbf07e47d	-0.5308302
159	0xbe343152	-0.17596939
160	0xbda800c1	-0.08203269
161	0xbe97e2e2	-0.29665285
162	0xbec24390	-0.3794217
163	0xbdf1cc3b	-0.11806532
164	0xbdef817b	-0.11694618
165	0xbe008597	-0.1255096
166	0xbe31428e	-0.17310545
167	0xbe9dd81b	-0.30828938
168	0xbe5fa38d	-0.21839733
169	0xbea13ff6	-0.3149411
170	0xbe78157b	-0.24226944
171	0xbded3b2d	-0.115835525
172	0xbe5896d1	-0.21151282
173	0xbd777003	-0.060409557
174	0xbe84d705	-0.25945297
175	0xbe29c83e	-0.16580293
176	0xbe929bd1	-0.28634503
177	0xbe02d935	-0.1277817
178	0xbf06a740	-0.52598953
179	0xbe276ab1	-0.16349293
180	0xbe282923	-0.16421942
181	0xbd9f5f53	-0.077818535
182	0xbe9deee9	-0.30846336
183	0xbeddc04d	-0.43310776
184	0xbecd9ab2	-0.40157086
185	0xbe876c24	-0.26449692
186	0xbe9de7d3	-0.3084093
187	0xbebede3d	-0.3727893
188	0xbe39411f	-0.18091248
189	0xbe8582a4	-0.26076233
190	0xbe9e051e	-0.3086328
191	0xbf0d46d1	-0.5518618
192	0xbdf693b7	-0.12039893
193	0xbe4053a5	-0.18781908
194	0xbf263249	-0.6492048
195	0xbeb0bf54	-0.34520972
196	0xbeffebf6	-0.4998471
197	0xbe09a5da	-0.13442174
198	0xbe927c8d	-0.2861065
199	0xbe9b421c	-0.30323875
200	0xbe4f47b7	-0.20242201
201	0xbef37261	-0.47548202
202	0xbe8c4ca5	-0.27402225
203	0xbec84ffb	-0.3912352
204	0xbea5171f	-0.32244202
205	0xbe6202d0	-0.22071385
206	0xbeb1c710	-0.34722185
207	0xbe91fbe0	-0.28512478
208	0xbe51f7e7	-0.20504723
209	0xbef97d35	-0.48728338
210	0xbe86b9c6	-0.2631361
211	0xbf2a386e	-0.66492355
212	0xbce82ff8	-0.028343186
213	0xbe6665ca	-0.22499767
214	0xbe96c29e	-0.29445356
215	0xbe3d43e1	-0.18482925
216	0xbe4c97b1	-0.1997974
217	0xbe67efd2	-0.22650078
218	0xbe2e4e19	-0.1702198
219	0xbef39573	-0.47574958
220	0xbf038d3c	-0.5138738
221	0xbeebda16	-0.46064824
222	0xbe673921	-0.22580387
223	0xbea3bb75	-0.31978956
224	0xbeeb6ed7	-0.45983002
225	0xbe9a4f2f	-0.30138537
226	0xbe3b954d	-0.18318672
227	0xbe674050	-0.22583127
228	0xbe71f5fa	-0.23628989
229	0xbe6e72a0	-0.23285913
230	0xbeac9a80	-0.33711624
231	0xbe7ff4eb	-0.24995773
232	0xbedcb63c	-0.43107784
233	0xbd03782c	-0.032097027
234	0xbee087da	-0.43853647
235	0xbe214f71	-0.1575296
236	0xbe8b8032	-0.27246243
237	0xbed53c8d	-0.4164776
238	0xbe4a8e5e	-0.19780871
239	0xbee7bb1f	-0.4525995
240	0xbd5506c0	-0.05200839
241	0xbeb9d01a	-0.3629158
242	0xbdd79346	-0.10526137
243	0xbda9fa9f	-0.08299755
244	0xbe202975	-0.15640815
245	0xbf1f145d	-0.62140447
246	0xbe96d822	-0.2946177
247	0xbea778a8	-0.3270924
248	0xbf206914	-0.62660336
249	0xbea2f67e	-0.31828684
250	0xbea605a8	-0.3242619
251	0xbe9c95d8	-0.30583072
252	0xbe07a80f	-0.13247703
253	0xbecad468	-0.39615178
254	0xbea54e4a	-0.32286292
255	0xbe5f8751	-0.21828963
